…
            "Instructions for updating:\n",
            "If using Keras pass *_constraint arguments to layers.\n",
            "Model: \"model\"\n",
            "_________________________________________________________________\n",
            "Layer (type)                 Output Shape              Param #   \n",
            "=================================================================\n",
            "input_1 (InputLayer)         [(None, 32, 32, 3)]       0         \n",
            "_________________________________________________________________\n",
            "conv2d (Conv2D)              (None, 32, 32, 64)        1792      \n",
            "_________________________________________________________________\n",
            "batch_normalization (BatchNo (None, 32, 32, 64)        256       \n",
            "_________________________________________________________________\n",
            "conv2d_1 (Conv2D)            (None, 32, 32, 64)        36928     \n",
            "_________________________________________________________________\n",
            "batch_normalization_1 (Batch (None, 32, 32, 64)        256       \n",
            "_________________________________________________________________\n",
            "max_pooling2d (MaxPooling2D) (None, 16, 16, 64)        0         \n",
            "_________________________________________________________________\n",
            "conv2d_2 (Conv2D)            (None, 16, 16, 128)       73856     \n",
            "_________________________________________________________________\n",
            "batch_normalization_2 (Batch (None, 16, 16, 128)       512       \n",
            "_________________________________________________________________\n",
            "conv2d_3 (Conv2D)            (None, 16, 16, 128)       147584    \n",
            "_________________________________________________________________\n",
            "batch_normalization_3 (Batch (None, 16, 16, 128)       512       \n",
            "_________________________________________________________________\n",
            "max_pooling2d_1 (MaxPooling2 (None, 8, 8, 128)         0         \n",
            "_________________________________________________________________\n",
            "conv2d_4 (Conv2D)            (None, 8, 8, 256)         295168    \n",
            "_________________________________________________________________\n",
            "max_pooling2d_2 (MaxPooling2 (None, 4, 4, 256)         0         \n",
            "_________________________________________________________________\n",
            "conv2d_5 (Conv2D)            (None, 4, 4, 512)         1180160   \n",
            "_________________________________________________________________\n",
            "max_pooling2d_3 (MaxPooling2 (None, 2, 2, 512)         0         \n",
            "_________________________________________________________________\n",
            "up_sampling2d (UpSampling2D) (None, 4, 4, 512)         0         \n",
            "_________________________________________________________________\n",
            "conv2d_6 (Conv2D)            (None, 4, 4, 512)         2359808   \n",
            "_________________________________________________________________\n",
            "up_sampling2d_1 (UpSampling2 (None, 8, 8, 512)         0         \n",
            "_________________________________________________________________\n",
            "conv2d_7 (Conv2D)            (None, 8, 8, 256)         1179904   \n",
            "_________________________________________________________________\n",
            "up_sampling2d_2 (UpSampling2 (None, 16, 16, 256)       0         \n",
            "_________________________________________________________________\n",
            "conv2d_8 (Conv2D)            (None, 16, 16, 128)       295040    \n",
            "_________________________________________________________________\n",
            "batch_normalization_4 (Batch (None, 16, 16, 128)       512       \n",
            "_________________________________________________________________\n",
            "conv2d_9 (Conv2D)            (None, 16, 16, 128)       147584    \n",
            "_________________________________________________________________\n",
            "batch_normalization_5 (Batch (None, 16, 16, 128)       512       \n",
            "_________________________________________________________________\n",
            "up_sampling2d_3 (UpSampling2 (None, 32, 32, 128)       0         \n",
            "_________________________________________________________________\n",
            "conv2d_10 (Conv2D)           (None, 32, 32, 64)        73792     \n",
            "_________________________________________________________________\n",
            "batch_normalization_6 (Batch (None, 32, 32, 64)        256       \n",
            "_________________________________________________________________\n",
            "conv2d_11 (Conv2D)           (None, 32, 32, 64)        36928     \n",
            "_________________________________________________________________\n",
            "batch_normalization_7 (Batch (None, 32, 32, 64)        256       \n",
            "_________________________________________________________________\n",
            "conv2d_12 (Conv2D)           (None, 32, 32, 3)         1731      \n",
            "=================================================================\n",
            "Total params: 5,833,347\n",
            "Trainable params: 5,831,811\n",
            "Non-trainable params: 1,536\n",
            "_________________________________________________________________\n",
            "Train on 42500 samples, validate on 5000 samples\n",
            "Epoch 1/20\n",
…
