…
            "Instructions for updating:\n",
            "If using Keras pass *_constraint arguments to layers.\n",
            "Model: \"model\"\n",
            "_________________________________________________________________\n",
            "Layer (type)                 Output Shape              Param #   \n",
            "=================================================================\n",
            "input_1 (InputLayer)         [(None, 32, 32, 3)]       0         \n",
            "_________________________________________________________________\n",
            "conv2d (Conv2D)              (None, 32, 32, 64)        1792      \n",
            "_________________________________________________________________\n",
            "batch_normalization (BatchNo (None, 32, 32, 64)        256       \n",
            "_________________________________________________________________\n",
            "conv2d_1 (Conv2D)            (None, 32, 32, 64)        36928     \n",
            "_________________________________________________________________\n",
            "batch_normalization_1 (Batch (None, 32, 32, 64)        256       \n",
            "_________________________________________________________________\n",
            "max_pooling2d (MaxPooling2D) (None, 16, 16, 64)        0         \n",
            "_________________________________________________________________\n",
            "conv2d_2 (Conv2D)            (None, 16, 16, 128)       73856     \n",
            "_________________________________________________________________\n",
            "batch_normalization_2 (Batch (None, 16, 16, 128)       512       \n",
            "_________________________________________________________________\n",
            "conv2d_3 (Conv2D)            (None, 16, 16, 128)       147584    \n",
            "_________________________________________________________________\n",
            "batch_normalization_3 (Batch (None, 16, 16, 128)       512       \n",
            "_________________________________________________________________\n",
            "max_pooling2d_1 (MaxPooling2 (None, 8, 8, 128)         0         \n",
            "_________________________________________________________________\n",
            "conv2d_4 (Conv2D)            (None, 8, 8, 256)         295168    \n",
            "_________________________________________________________________\n",
            "max_pooling2d_2 (MaxPooling2 (None, 4, 4, 256)         0         \n",
            "_________________________________________________________________\n",
            "conv2d_5 (Conv2D)            (None, 4, 4, 512)         1180160   \n",
            "_________________________________________________________________\n",
            "max_pooling2d_3 (MaxPooling2 (None, 2, 2, 512)         0         \n",
            "_________________________________________________________________\n",
            "up_sampling2d (UpSampling2D) (None, 4, 4, 512)         0         \n",
            "_________________________________________________________________\n",
            "conv2d_6 (Conv2D)            (None, 4, 4, 512)         2359808   \n",
            "_________________________________________________________________\n",
            "up_sampling2d_1 (UpSampling2 (None, 8, 8, 512)         0         \n",
            "_________________________________________________________________\n",
            "conv2d_7 (Conv2D)            (None, 8, 8, 256)         1179904   \n",
            "_________________________________________________________________\n",
            "up_sampling2d_2 (UpSampling2 (None, 16, 16, 256)       0         \n",
            "_________________________________________________________________\n",
            "conv2d_8 (Conv2D)            (None, 16, 16, 128)       295040    \n",
            "_________________________________________________________________\n",
            "batch_normalization_4 (Batch (None, 16, 16, 128)       512       \n",
            "_________________________________________________________________\n",
            "conv2d_9 (Conv2D)            (None, 16, 16, 128)       147584    \n",
            "_________________________________________________________________\n",
            "batch_normalization_5 (Batch (None, 16, 16, 128)       512       \n",
            "_________________________________________________________________\n",
            "up_sampling2d_3 (UpSampling2 (None, 32, 32, 128)       0         \n",
            "_________________________________________________________________\n",
            "conv2d_10 (Conv2D)           (None, 32, 32, 64)        73792     \n",
            "_________________________________________________________________\n",
            "batch_normalization_6 (Batch (None, 32, 32, 64)        256       \n",
            "_________________________________________________________________\n",
            "conv2d_11 (Conv2D)           (None, 32, 32, 64)        36928     \n",
            "_________________________________________________________________\n",
            "batch_normalization_7 (Batch (None, 32, 32, 64)        256       \n",
            "_________________________________________________________________\n",
            "conv2d_12 (Conv2D)           (None, 32, 32, 3)         1731      \n",
            "=================================================================\n",
            "Total params: 5,833,347\n",
            "Trainable params: 5,831,811\n",
            "Non-trainable params: 1,536\n",
            "_________________________________________________________________\n",
            "Train on 42500 samples, validate on 5000 samples\n",
            "Epoch 1/20\n",
…
      "execution_count": 14,
      "outputs": [
        {
          "output_type": "stream",
          "text": [
            "Model: \"model_3\"\n",
            "_________________________________________________________________\n",
            "Layer (type)                 Output Shape              Param #   \n",
            "=================================================================\n",
            "input_1 (InputLayer)         [(None, 32, 32, 3)]       0         \n",
            "_________________________________________________________________\n",
            "conv2d_41 (Conv2D)           (None, 32, 32, 64)        1792      \n",
            "_________________________________________________________________\n",
            "batch_normalization_28 (Batc (None, 32, 32, 64)        256       \n",
            "_________________________________________________________________\n",
            "conv2d_42 (Conv2D)           (None, 32, 32, 64)        36928     \n",
            "_________________________________________________________________\n",
            "batch_normalization_29 (Batc (None, 32, 32, 64)        256       \n",
            "_________________________________________________________________\n",
            "max_pooling2d_10 (MaxPooling (None, 16, 16, 64)        0         \n",
            "_________________________________________________________________\n",
            "conv2d_43 (Conv2D)           (None, 16, 16, 128)       73856     \n",
            "_________________________________________________________________\n",
            "batch_normalization_30 (Batc (None, 16, 16, 128)       512       \n",
            "_________________________________________________________________\n",
            "conv2d_44 (Conv2D)           (None, 16, 16, 128)       147584    \n",
            "_________________________________________________________________\n",
            "batch_normalization_31 (Batc (None, 16, 16, 128)       512       \n",
            "_________________________________________________________________\n",
            "max_pooling2d_11 (MaxPooling (None, 8, 8, 128)         0         \n",
            "_________________________________________________________________\n",
            "conv2d_45 (Conv2D)           (None, 8, 8, 256)         295168    \n",
            "_________________________________________________________________\n",
            "max_pooling2d_12 (MaxPooling (None, 4, 4, 256)         0         \n",
            "_________________________________________________________________\n",
            "conv2d_46 (Conv2D)           (None, 4, 4, 512)         1180160   \n",
            "_________________________________________________________________\n",
            "average_pooling2d_2 (Average (None, 2, 2, 512)         0         \n",
            "_________________________________________________________________\n",
            "conv2d_54 (Conv2D)           (None, 2, 2, 1024)        525312    \n",
            "_________________________________________________________________\n",
            "flatten_2 (Flatten)          (None, 4096)              0         \n",
            "_________________________________________________________________\n",
            "dense_6 (Dense)              (None, 1024)              4195328   \n",
            "_________________________________________________________________\n",
            "batch_normalization_36 (Batc (None, 1024)              4096      \n",
            "_________________________________________________________________\n",
            "activation_6 (Activation)    (None, 1024)              0         \n",
            "_________________________________________________________________\n",
            "dense_7 (Dense)              (None, 1024)              1049600   \n",
            "_________________________________________________________________\n",
            "batch_normalization_37 (Batc (None, 1024)              4096      \n",
            "_________________________________________________________________\n",
            "activation_7 (Activation)    (None, 1024)              0         \n",
            "_________________________________________________________________\n",
            "dense_8 (Dense)              (None, 10)                10250     \n",
            "_________________________________________________________________\n",
            "activation_8 (Activation)    (None, 10)                0         \n",
            "=================================================================\n",
            "Total params: 7,525,706\n",
            "Trainable params: 5,784,586\n",
            "Non-trainable params: 1,741,120\n",
            "_________________________________________________________________\n",
            "Epoch 1/50\n",
            "330/332 [============================>.] - ETA: 0s - loss: 2.1751 - acc: 0.4382Epoch 1/50\n",
…
